--------------------------------------------------------------------
Namespace(split=False, feature_files=['../too_big_for_git/features/currently_used/full_dataset/full_dataset_Functional'], model_file='../too_big_for_git/models/Functional/full_dataset/ALC_combo0_full_dataset_Functional.pt', features='Functional', parameters='{"lr":0.0001,"layers":[64,32,16,8,4],"dropout":0,"optim":"adam","bn":"True","batch_size":5,"num_epochs":10,"activation":"sigmoid"}', test=False)
Loading datasets.
Datasets loaded.
Simple_Neural_Network(
  (layers): ModuleList(
    (0): Linear(in_features=88, out_features=64, bias=True)
    (1): Linear(in_features=64, out_features=32, bias=True)
    (2): Linear(in_features=32, out_features=16, bias=True)
    (3): Linear(in_features=16, out_features=8, bias=True)
    (4): Linear(in_features=8, out_features=4, bias=True)
  )
  (output_layer): Linear(in_features=4, out_features=2, bias=True)
  (activation): Sigmoid()
  (softmax): Softmax(dim=1)
  (batch_norms): ModuleList(
    (0): BatchNorm1d(64, eps=1e-05, momentum=0.1, affine=True, track_running_stats=True)
    (1): BatchNorm1d(32, eps=1e-05, momentum=0.1, affine=True, track_running_stats=True)
    (2): BatchNorm1d(16, eps=1e-05, momentum=0.1, affine=True, track_running_stats=True)
    (3): BatchNorm1d(8, eps=1e-05, momentum=0.1, affine=True, track_running_stats=True)
    (4): BatchNorm1d(4, eps=1e-05, momentum=0.1, affine=True, track_running_stats=True)
    (5): BatchNorm1d(2, eps=1e-05, momentum=0.1, affine=True, track_running_stats=True)
  )
  (dropout): Dropout(p=0, inplace=False)
)
Start training.
EPOCH: 0
--------------------------------------------------------------------
Namespace(split=False, feature_files=['../too_big_for_git/features/currently_used/full_dataset/full_dataset_Functional'], model_file='../too_big_for_git/models/Functional/full_dataset/ALC_combo1_full_dataset_Functional.pt', features='Functional', parameters='{"lr":0.0001,"layers":[32],"dropout":0,"optim":"adam","bn":"True","batch_size":5,"num_epochs":10,"activation":"sigmoid"}', test=False)
Loading datasets.
Datasets loaded.
Simple_Neural_Network(
  (layers): ModuleList(
    (0): Linear(in_features=88, out_features=32, bias=True)
  )
  (output_layer): Linear(in_features=32, out_features=2, bias=True)
  (activation): Sigmoid()
  (softmax): Softmax(dim=1)
  (batch_norms): ModuleList(
    (0): BatchNorm1d(32, eps=1e-05, momentum=0.1, affine=True, track_running_stats=True)
    (1): BatchNorm1d(2, eps=1e-05, momentum=0.1, affine=True, track_running_stats=True)
  )
  (dropout): Dropout(p=0, inplace=False)
)
Start training.
EPOCH: 0
--------------------------------------------------------------------
Namespace(split=False, feature_files=['../too_big_for_git/features/currently_used/full_dataset/full_dataset_Functional'], model_file='../too_big_for_git/models/Functional/full_dataset/ALC_combo2_full_dataset_Functional.pt', features='Functional', parameters='{"lr":0.0001,"layers":[64,16,4],"dropout":0,"optim":"adam","bn":"True","batch_size":5,"num_epochs":10,"activation":"sigmoid"}', test=False)
Loading datasets.
Datasets loaded.
Simple_Neural_Network(
  (layers): ModuleList(
    (0): Linear(in_features=88, out_features=64, bias=True)
    (1): Linear(in_features=64, out_features=16, bias=True)
    (2): Linear(in_features=16, out_features=4, bias=True)
  )
  (output_layer): Linear(in_features=4, out_features=2, bias=True)
  (activation): Sigmoid()
  (softmax): Softmax(dim=1)
  (batch_norms): ModuleList(
    (0): BatchNorm1d(64, eps=1e-05, momentum=0.1, affine=True, track_running_stats=True)
    (1): BatchNorm1d(16, eps=1e-05, momentum=0.1, affine=True, track_running_stats=True)
    (2): BatchNorm1d(4, eps=1e-05, momentum=0.1, affine=True, track_running_stats=True)
    (3): BatchNorm1d(2, eps=1e-05, momentum=0.1, affine=True, track_running_stats=True)
  )
  (dropout): Dropout(p=0, inplace=False)
)
Start training.
EPOCH: 0
--------------------------------------------------------------------
Namespace(split=False, feature_files=['../too_big_for_git/features/currently_used/full_dataset/full_dataset_Functional'], model_file='../too_big_for_git/models/Functional/full_dataset/ALC_combo3_full_dataset_Functional.pt', features='Functional', parameters='{"lr":0.0001,"layers":[64,32,16,8,4],"dropout":0,"optim":"adam","bn":"True","batch_size":10,"num_epochs":10,"activation":"sigmoid"}', test=False)
Loading datasets.
Datasets loaded.
Simple_Neural_Network(
  (layers): ModuleList(
    (0): Linear(in_features=88, out_features=64, bias=True)
    (1): Linear(in_features=64, out_features=32, bias=True)
    (2): Linear(in_features=32, out_features=16, bias=True)
    (3): Linear(in_features=16, out_features=8, bias=True)
    (4): Linear(in_features=8, out_features=4, bias=True)
  )
  (output_layer): Linear(in_features=4, out_features=2, bias=True)
  (activation): Sigmoid()
  (softmax): Softmax(dim=1)
  (batch_norms): ModuleList(
    (0): BatchNorm1d(64, eps=1e-05, momentum=0.1, affine=True, track_running_stats=True)
    (1): BatchNorm1d(32, eps=1e-05, momentum=0.1, affine=True, track_running_stats=True)
    (2): BatchNorm1d(16, eps=1e-05, momentum=0.1, affine=True, track_running_stats=True)
    (3): BatchNorm1d(8, eps=1e-05, momentum=0.1, affine=True, track_running_stats=True)
    (4): BatchNorm1d(4, eps=1e-05, momentum=0.1, affine=True, track_running_stats=True)
    (5): BatchNorm1d(2, eps=1e-05, momentum=0.1, affine=True, track_running_stats=True)
  )
  (dropout): Dropout(p=0, inplace=False)
)
Start training.
EPOCH: 0
--------------------------------------------------------------------
Namespace(split=False, feature_files=['../too_big_for_git/features/currently_used/full_dataset/full_dataset_Functional'], model_file='../too_big_for_git/models/Functional/full_dataset/ALC_combo4_full_dataset_Functional.pt', features='Functional', parameters='{"lr":0.0001,"layers":[64,32,16,8,4],"dropout":0.5,"optim":"adam","bn":"True","batch_size":5,"num_epochs":10,"activation":"sigmoid"}', test=False)
Loading datasets.
Datasets loaded.
Simple_Neural_Network(
  (layers): ModuleList(
    (0): Linear(in_features=88, out_features=64, bias=True)
    (1): Linear(in_features=64, out_features=32, bias=True)
    (2): Linear(in_features=32, out_features=16, bias=True)
    (3): Linear(in_features=16, out_features=8, bias=True)
    (4): Linear(in_features=8, out_features=4, bias=True)
  )
  (output_layer): Linear(in_features=4, out_features=2, bias=True)
  (activation): Sigmoid()
  (softmax): Softmax(dim=1)
  (batch_norms): ModuleList(
    (0): BatchNorm1d(64, eps=1e-05, momentum=0.1, affine=True, track_running_stats=True)
    (1): BatchNorm1d(32, eps=1e-05, momentum=0.1, affine=True, track_running_stats=True)
    (2): BatchNorm1d(16, eps=1e-05, momentum=0.1, affine=True, track_running_stats=True)
    (3): BatchNorm1d(8, eps=1e-05, momentum=0.1, affine=True, track_running_stats=True)
    (4): BatchNorm1d(4, eps=1e-05, momentum=0.1, affine=True, track_running_stats=True)
    (5): BatchNorm1d(2, eps=1e-05, momentum=0.1, affine=True, track_running_stats=True)
  )
  (dropout): Dropout(p=0.5, inplace=False)
)
Start training.
EPOCH: 0
--------------------------------------------------------------------
Namespace(split=False, feature_files=['../too_big_for_git/features/currently_used/full_dataset/full_dataset_Functional'], model_file='../too_big_for_git/models/Functional/full_dataset/ALC_combo5_full_dataset_Functional.pt', features='Functional', parameters='{"lr":0.0001,"layers":[32],"dropout":0,"optim":"adam","bn":"True","batch_size":10,"num_epochs":10,"activation":"sigmoid"}', test=False)
Loading datasets.
Datasets loaded.
Simple_Neural_Network(
  (layers): ModuleList(
    (0): Linear(in_features=88, out_features=32, bias=True)
  )
  (output_layer): Linear(in_features=32, out_features=2, bias=True)
  (activation): Sigmoid()
  (softmax): Softmax(dim=1)
  (batch_norms): ModuleList(
    (0): BatchNorm1d(32, eps=1e-05, momentum=0.1, affine=True, track_running_stats=True)
    (1): BatchNorm1d(2, eps=1e-05, momentum=0.1, affine=True, track_running_stats=True)
  )
  (dropout): Dropout(p=0, inplace=False)
)
Start training.
EPOCH: 0
--------------------------------------------------------------------
Namespace(split=False, feature_files=['../too_big_for_git/features/currently_used/full_dataset/full_dataset_Functional'], model_file='../too_big_for_git/models/Functional/full_dataset/ALC_combo6_full_dataset_Functional.pt', features='Functional', parameters='{"lr":0.0001,"layers":[64,32,16,8,4],"dropout":0,"optim":"SGD","bn":"True","batch_size":5,"num_epochs":10,"activation":"sigmoid"}', test=False)
Loading datasets.
Datasets loaded.
Simple_Neural_Network(
  (layers): ModuleList(
    (0): Linear(in_features=88, out_features=64, bias=True)
    (1): Linear(in_features=64, out_features=32, bias=True)
    (2): Linear(in_features=32, out_features=16, bias=True)
    (3): Linear(in_features=16, out_features=8, bias=True)
    (4): Linear(in_features=8, out_features=4, bias=True)
  )
  (output_layer): Linear(in_features=4, out_features=2, bias=True)
  (activation): Sigmoid()
  (softmax): Softmax(dim=1)
  (batch_norms): ModuleList(
    (0): BatchNorm1d(64, eps=1e-05, momentum=0.1, affine=True, track_running_stats=True)
    (1): BatchNorm1d(32, eps=1e-05, momentum=0.1, affine=True, track_running_stats=True)
    (2): BatchNorm1d(16, eps=1e-05, momentum=0.1, affine=True, track_running_stats=True)
    (3): BatchNorm1d(8, eps=1e-05, momentum=0.1, affine=True, track_running_stats=True)
    (4): BatchNorm1d(4, eps=1e-05, momentum=0.1, affine=True, track_running_stats=True)
    (5): BatchNorm1d(2, eps=1e-05, momentum=0.1, affine=True, track_running_stats=True)
  )
  (dropout): Dropout(p=0, inplace=False)
)
Start training.
EPOCH: 0
--------------------------------------------------------------------
Namespace(split=False, feature_files=['../too_big_for_git/features/currently_used/full_dataset/full_dataset_Functional'], model_file='../too_big_for_git/models/Functional/full_dataset/ALC_combo7_full_dataset_Functional.pt', features='Functional', parameters='{"lr":0.0001,"layers":[32],"dropout":0,"optim":"adam","bn":"True","batch_size":10,"num_epochs":20,"activation":"sigmoid"}', test=False)
Loading datasets.
Datasets loaded.
Simple_Neural_Network(
  (layers): ModuleList(
    (0): Linear(in_features=88, out_features=32, bias=True)
  )
  (output_layer): Linear(in_features=32, out_features=2, bias=True)
  (activation): Sigmoid()
  (softmax): Softmax(dim=1)
  (batch_norms): ModuleList(
    (0): BatchNorm1d(32, eps=1e-05, momentum=0.1, affine=True, track_running_stats=True)
    (1): BatchNorm1d(2, eps=1e-05, momentum=0.1, affine=True, track_running_stats=True)
  )
  (dropout): Dropout(p=0, inplace=False)
)
Start training.
EPOCH: 0
--------------------------------------------------------------------
Namespace(split=False, feature_files=['../too_big_for_git/features/currently_used/full_dataset/full_dataset_Functional'], model_file='../too_big_for_git/models/Functional/full_dataset/ALC_combo8_full_dataset_Functional.pt', features='Functional', parameters='{"lr":0.00001,"layers":[64,32,16,8,4],"dropout":0,"optim":"adam","bn":"True","batch_size":5,"num_epochs":10,"activation":"sigmoid"}', test=False)
Loading datasets.
Datasets loaded.
Simple_Neural_Network(
  (layers): ModuleList(
    (0): Linear(in_features=88, out_features=64, bias=True)
    (1): Linear(in_features=64, out_features=32, bias=True)
    (2): Linear(in_features=32, out_features=16, bias=True)
    (3): Linear(in_features=16, out_features=8, bias=True)
    (4): Linear(in_features=8, out_features=4, bias=True)
  )
  (output_layer): Linear(in_features=4, out_features=2, bias=True)
  (activation): Sigmoid()
  (softmax): Softmax(dim=1)
  (batch_norms): ModuleList(
    (0): BatchNorm1d(64, eps=1e-05, momentum=0.1, affine=True, track_running_stats=True)
    (1): BatchNorm1d(32, eps=1e-05, momentum=0.1, affine=True, track_running_stats=True)
    (2): BatchNorm1d(16, eps=1e-05, momentum=0.1, affine=True, track_running_stats=True)
    (3): BatchNorm1d(8, eps=1e-05, momentum=0.1, affine=True, track_running_stats=True)
    (4): BatchNorm1d(4, eps=1e-05, momentum=0.1, affine=True, track_running_stats=True)
    (5): BatchNorm1d(2, eps=1e-05, momentum=0.1, affine=True, track_running_stats=True)
  )
  (dropout): Dropout(p=0, inplace=False)
)
Start training.
EPOCH: 0
--------------------------------------------------------------------
Namespace(split=False, feature_files=['../too_big_for_git/features/currently_used/full_dataset/full_dataset_Functional'], model_file='../too_big_for_git/models/Functional/full_dataset/ALC_combo9_full_dataset_Functional.pt', features='Functional', parameters='{"lr":0.0005,"layers":[64,32,16,8,4],"dropout":0,"optim":"adam","bn":"True","batch_size":5,"num_epochs":10,"activation":"sigmoid"}', test=False)
Loading datasets.
Datasets loaded.
Simple_Neural_Network(
  (layers): ModuleList(
    (0): Linear(in_features=88, out_features=64, bias=True)
    (1): Linear(in_features=64, out_features=32, bias=True)
    (2): Linear(in_features=32, out_features=16, bias=True)
    (3): Linear(in_features=16, out_features=8, bias=True)
    (4): Linear(in_features=8, out_features=4, bias=True)
  )
  (output_layer): Linear(in_features=4, out_features=2, bias=True)
  (activation): Sigmoid()
  (softmax): Softmax(dim=1)
  (batch_norms): ModuleList(
    (0): BatchNorm1d(64, eps=1e-05, momentum=0.1, affine=True, track_running_stats=True)
    (1): BatchNorm1d(32, eps=1e-05, momentum=0.1, affine=True, track_running_stats=True)
    (2): BatchNorm1d(16, eps=1e-05, momentum=0.1, affine=True, track_running_stats=True)
    (3): BatchNorm1d(8, eps=1e-05, momentum=0.1, affine=True, track_running_stats=True)
    (4): BatchNorm1d(4, eps=1e-05, momentum=0.1, affine=True, track_running_stats=True)
    (5): BatchNorm1d(2, eps=1e-05, momentum=0.1, affine=True, track_running_stats=True)
  )
  (dropout): Dropout(p=0, inplace=False)
)
Start training.
EPOCH: 0
--------------------------------------------------------------------
Namespace(split=False, feature_files=['../too_big_for_git/features/currently_used/full_dataset/full_dataset_Functional'], model_file='../too_big_for_git/models/Functional/full_dataset/ALC_combo1__full_dataset_Functional.pt', features='Functional', parameters='{"lr":0.0001,"layers":[32],"dropout":0,"optim":"adam","bn":"True","batch_size":15,"num_epochs":10,"activation":"sigmoid"}', test=False)
Loading datasets.
Datasets loaded.
Simple_Neural_Network(
  (layers): ModuleList(
    (0): Linear(in_features=88, out_features=32, bias=True)
  )
  (output_layer): Linear(in_features=32, out_features=2, bias=True)
  (activation): Sigmoid()
  (softmax): Softmax(dim=1)
  (batch_norms): ModuleList(
    (0): BatchNorm1d(32, eps=1e-05, momentum=0.1, affine=True, track_running_stats=True)
    (1): BatchNorm1d(2, eps=1e-05, momentum=0.1, affine=True, track_running_stats=True)
  )
  (dropout): Dropout(p=0, inplace=False)
)
Start training.
EPOCH: 0
--------------------------------------------------------------------
Namespace(split=False, feature_files=['../too_big_for_git/features/currently_used/full_dataset/full_dataset_Functional'], model_file='../too_big_for_git/models/Functional/full_dataset/ALC_combo1__full_dataset_Functional.pt', features='Functional', parameters='{"lr":0.0001,"layers":[32],"dropout":0.1,"optim":"adam","bn":"True","batch_size":15,"num_epochs":10,"activation":"sigmoid"}', test=False)
Loading datasets.
Datasets loaded.
Simple_Neural_Network(
  (layers): ModuleList(
    (0): Linear(in_features=88, out_features=32, bias=True)
  )
  (output_layer): Linear(in_features=32, out_features=2, bias=True)
  (activation): Sigmoid()
  (softmax): Softmax(dim=1)
  (batch_norms): ModuleList(
    (0): BatchNorm1d(32, eps=1e-05, momentum=0.1, affine=True, track_running_stats=True)
    (1): BatchNorm1d(2, eps=1e-05, momentum=0.1, affine=True, track_running_stats=True)
  )
  (dropout): Dropout(p=0.1, inplace=False)
)
Start training.
EPOCH: 0
